denoising/noise_profiler/noise_models/hg-s22p-s906u-na-g0q-pr-w-id35249-v7/model_params.npy (npy, 2048 bytes, 1 tensors)

array f8 [60, 4]
0	0x4049000000000000	50.0
1	0x0000000000000000	0.0
2	0x3fb8d2a431fc71c3	0.09696413250316653
3	0xc0153e89885cd7c5	-5.311071520487478
4	0x4049000000000000	50.0
5	0x3ff0000000000000	1.0
6	0x3fb9a8bc3bc8fd92	0.10023094615552555
7	0xc014f8712762c153	-5.24261914768461
8	0x4049000000000000	50.0
9	0x4000000000000000	2.0
10	0x3fb84ceaf670a766	0.0949236728344239
11	0xc0132ba13989c445	-4.79260721114503
12	0x4049000000000000	50.0
13	0x4008000000000000	3.0
14	0x3fb8c8835d723769	0.09680958777809469
15	0xc0151acff4cbd71e	-5.276183915082383
16	0x4059000000000000	100.0
17	0x0000000000000000	0.0
18	0x3fc3988b0a6686c3	0.1530927468093549
19	0xc023454438f1e564	-9.635286120918586
20	0x4059000000000000	100.0
21	0x3ff0000000000000	1.0
22	0x3fc65951f8360f1c	0.17460083598791065
23	0xc02545a40f67cd1c	-10.636017304822012
24	0x4059000000000000	100.0
25	0x4000000000000000	2.0
26	0x3fc61ed77209f03e	0.1728162104444681
27	0xc02508483f70c2bf	-10.516176207079637
28	0x4059000000000000	100.0
29	0x4008000000000000	3.0
30	0x3fc3914f33c930a5	0.15287199047668767
31	0xc02335fe7a710abf	-9.605457140254087
32	0x4062c00000000000	150.0
33	0x0000000000000000	0.0
34	0x3fcb38a9debbb22d	0.2126667344631569
35	0xc029853b3618a961	-12.760217371473745
36	0x4062c00000000000	150.0
37	0x3ff0000000000000	1.0
38	0x3fd039a1511506e0	0.25351746481110915
39	0xc02e4644b1bea141	-15.137242846031429
40	0x4062c00000000000	150.0
41	0x4000000000000000	2.0
42	0x3fd04140933d4d5a	0.2539826810727469
43	0xc02e425e25da1269	-15.129624541158778
44	0x4062c00000000000	150.0
45	0x4008000000000000	3.0
46	0x3fcb5e45c2727fbf	0.21381446833129122
47	0xc029c5e48c4e01e7	-12.88650930835952
48	0x4069000000000000	200.0
49	0x0000000000000000	0.0
50	0x3fd1b2bbd5c5d0b1	0.2765340411781479
51	0xc030a9793994d0c0	-16.662005995590107
52	0x4069000000000000	200.0
53	0x3ff0000000000000	1.0
54	0x3fd539322a5b877d	0.3316159642837347
55	0xc0339eb577f869ec	-19.619956491611376
56	0x4069000000000000	200.0
57	0x4000000000000000	2.0
58	0x3fd59bf7e4e86cec	0.33764455179489405
59	0xc0341fb2e69ee725	-20.12382356051889
60	0x4069000000000000	200.0
61	0x4008000000000000	3.0
62	0x3fd1c6af1a3612d1	0.27775170859994797
63	0xc030b9c3f34c6995	-16.725646215587023
64	0x4072c00000000000	300.0
65	0x0000000000000000	0.0
66	0x3fd9b721582a15fe	0.40180238351635456
67	0xc037dff2af9919d1	-23.87479684341253
68	0x4072c00000000000	300.0
69	0x3ff0000000000000	1.0
70	0x3fdef91ab405e258	0.4839541204487765
71	0xc03c55db9437fbdd	-28.335381759326868
72	0x4072c00000000000	300.0
73	0x4000000000000000	2.0
74	0x3fdfe9265262e1d3	0.49860532804043806
75	0xc03d61282fd8aeed	-29.379519453431318
76	0x4072c00000000000	300.0
77	0x4008000000000000	3.0
78	0x3fd9aa98d535e1bb	0.40103741475425253
79	0xc037b56625dfc69a	-23.708589903958092
80	0x4079000000000000	400.0
81	0x0000000000000000	0.0
82	0x3fe0e89956f7fa1a	0.5283934305769578
83	0xc03efe6e94b3df1b	-30.9938748301639
84	0x4079000000000000	400.0
85	0x3ff0000000000000	1.0
86	0x3fe446cee5b8a612	0.6336435782188252
87	0xc04262a13f7308f7	-36.77054589383072
88	0x4079000000000000	400.0
89	0x4000000000000000	2.0
90	0x3fe4ec016f006401	0.653809277343612
91	0xc0433204b2d61558	-38.39076838925638
92	0x4079000000000000	400.0
93	0x4008000000000000	3.0
94	0x3fe0cb5b17ed0f20	0.5248237101845667
95	0xc03eaa33f7367810	-30.664855433271498
96	0x4082c00000000000	600.0
97	0x0000000000000000	0.0
98	0x3fe5a30b1b37f9af	0.6761527568449334
99	0xc04231bbb5fa9807	-36.38854098068264
100	0x4082c00000000000	600.0
101	0x3ff0000000000000	1.0
102	0x3feab6c4e7fd9e92	0.8348106890743614
103	0xc0471c976e264386	-46.22337128513668
104	0x4082c00000000000	600.0
105	0x4000000000000000	2.0
106	0x3feaf4a26bbe6385	0.8423626045579203
107	0xc0477b0a9a7037ea	-46.96126108626761
108	0x4082c00000000000	600.0
109	0x4008000000000000	3.0
110	0x3fe5a75c893255a6	0.6766798667546723
111	0xc04241f35c1695a2	-36.51523924925574
112	0x4089000000000000	800.0
113	0x0000000000000000	0.0
114	0x3fec09c930c55ca5	0.8761945679242628
115	0xc046c7d644e5a685	-45.56122647488977
116	0x4089000000000000	800.0
117	0x3ff0000000000000	1.0
118	0x3ff17234ce11b663	1.0903823899820047
119	0xc04d1ab277576f02	-58.20857135552616
120	0x4089000000000000	800.0
121	0x4000000000000000	2.0
122	0x3ff191cb8db6b50b	1.0980945144359022
123	0xc04d9a47a6bb6e99	-59.20531162406878
124	0x4089000000000000	800.0
125	0x4008000000000000	3.0
126	0x3febe856eb4d95c6	0.8721117587817211
127	0xc0468b1838a7d3c8	-45.08667667574588
128	0x4092c00000000000	1200.0
129	0x0000000000000000	0.0
130	0x3ff4867c076b8b89	1.282833127007253
131	0xc04fc775fdffd4f9	-63.558288335721905
132	0x4092c00000000000	1200.0
133	0x3ff0000000000000	1.0
134	0x3ff9e679e95056e5	1.6187686075040173
135	0xc054a41ce7b331cd	-82.56426422595469
136	0x4092c00000000000	1200.0
137	0x4000000000000000	2.0
138	0x3ffa04f87ef5c134	1.626213546693248
139	0xc0550ae638089edf	-84.17030144540648
140	0x4092c00000000000	1200.0
141	0x4008000000000000	3.0
142	0x3ff4683242cdb60b	1.2754385575784706
143	0xc04f8af47713279d	-63.08558548388758
144	0x4099000000000000	1600.0
145	0x0000000000000000	0.0
146	0x3ffb29ec4bba794a	1.697735114873995
147	0xc053ced22605df02	-79.23157644818642
148	0x4099000000000000	1600.0
149	0x3ff0000000000000	1.0
150	0x40011172491ef4d6	2.1335187637874737
151	0xc05920763999833f	-100.50721588126633
152	0x4099000000000000	1600.0
153	0x4000000000000000	2.0
154	0x40011a74eb94f5f6	2.137918320163176
155	0xc05993fee5831691	-102.31243264962747
156	0x4099000000000000	1600.0
157	0x4008000000000000	3.0
158	0x3ffafdd4e5c1fd74	1.6869706129944833
159	0xc0537e07316a3148	-77.9691890275036
160	0x409f340000000000	1997.0
161	0x0000000000000000	0.0
162	0x4000f172d8c54319	2.1178948340606323
163	0xc056f66e5cbeb62c	-91.8504859793108
164	0x409f340000000000	1997.0
165	0x3ff0000000000000	1.0
166	0x40054b5281006264	2.6617784574739733
167	0xc05d0e0b3aae5527	-116.21943537735625
168	0x409f340000000000	1997.0
169	0x4000000000000000	2.0
170	0x4005905d6b1cc4a6	2.695490681472239
171	0xc05decdcdbb81abb	-119.70098011950442
172	0x409f340000000000	1997.0
173	0x4008000000000000	3.0
174	0x4000e1f254da66c1	2.1103254918242276
175	0xc056b74366254ccb	-90.86348870890212
176	0x40a2c20000000000	2401.0
177	0x0000000000000000	0.0
178	0x4004393c78829fba	2.527947370039297
179	0xc0590aceb33a7d51	-100.16886597358577
180	0x40a2c20000000000	2401.0
181	0x3ff0000000000000	1.0
182	0x4009e9a08fc7cfec	3.2390757782795756
183	0xc0605e12046f48bf	-130.93969938025654
184	0x40a2c20000000000	2401.0
185	0x4000000000000000	2.0
186	0x4009f24cc4bf13bf	3.2433104868709672
187	0xc060cda7b4307bfa	-134.426721663185
188	0x40a2c20000000000	2401.0
189	0x4008000000000000	3.0
190	0x400444d214ccde21	2.533603823186937
191	0xc058c9d797a7119d	-99.15378371539414
192	0x40a9000000000000	3200.0
193	0x0000000000000000	0.0
194	0x400b5ae8c7399e67	3.419389301725278
195	0xc05c3ca1de358f7f	-112.94737963896294
196	0x40a9000000000000	3200.0
197	0x3ff0000000000000	1.0
198	0x401176e615270e42	4.3661120705688194
199	0xc062c1dfe2fa4ffc	-150.0585799111285
200	0x40a9000000000000	3200.0
201	0x4000000000000000	2.0
202	0x40118cc667b87147	4.387475605614163
203	0xc06420ff8bf70fad	-161.0311946702399
204	0x40a9000000000000	3200.0
205	0x4008000000000000	3.0
206	0x400b439051ad802b	3.407990110499687
207	0xc05cb8b8b237d884	-114.8862729592675
208	0x40af360000000000	3995.0
209	0x0000000000000000	0.0
210	0x4011537a55c496f3	4.331521358608131
211	0xc05d89b27f66e5a4	-118.15151963280238
212	0x40af360000000000	3995.0
213	0x3ff0000000000000	1.0
214	0x4015cdc14a7329ec	5.450932658461607
215	0xc064032086965342	-160.09772042618175
216	0x40af360000000000	3995.0
217	0x4000000000000000	2.0
218	0x4016a87ae070bf4f	5.66453123748927
219	0xc067713f6a0daadc	-187.53899099988382
220	0x40af360000000000	3995.0
221	0x4008000000000000	3.0
222	0x401123e3d195a572	4.285048746832546
223	0xc05c7f3b391c4e4c	-113.98798969043963
224	0x40b2c30000000000	4803.0
225	0x0000000000000000	0.0
226	0x4014f4df2ee8c216	5.239132626491957
227	0xc05b9455f1320f0e	-110.31774549377971
228	0x40b2c30000000000	4803.0
229	0x3ff0000000000000	1.0
230	0x401a9113200a2003	6.64167451917456
231	0xc064df72bd8fa194	-166.9827564053818
232	0x40b2c30000000000	4803.0
233	0x4000000000000000	2.0
234	0x401b18b93e05479a	6.774144143173453
235	0xc068827e23f18a64	-196.07789799857994
236	0x40b2c30000000000	4803.0
237	0x4008000000000000	3.0
238	0x4014dbea056fbb24	5.214759907669563
239	0xc05ac6987277f28e	-107.10305463517781
