denoising/noise_profiler/noise_models/hg-s22u-s908u-na-b0q-pr-t2-id35248-v7/model_params.npy (npy, 2432 bytes, 1 tensors)

array f8 [72, 4]
000000 00 00 00 00 00 00 42 40 00 00 00 00 00 00 00 00
       36.0 0.0
000010 1c 21 07 f5 c8 81 ca 3f d2 e8 ce a1 3d 06 2c c0
       0.20708572353601873 -14.012188965327741
000020 00 00 00 00 00 00 42 40 00 00 00 00 00 00 f0 3f
       36.0 1.0
000030 cd bc cf 58 11 b9 ca 3f f8 2c e3 e3 66 87 2a c0
       0.20877281986711296 -13.264456864816097
000040 00 00 00 00 00 00 42 40 00 00 00 00 00 00 00 40
       36.0 2.0
000050 81 d7 74 76 eb 59 ca 3f 5d 98 fe 86 17 c6 29 c0
       0.20586913379673535 -12.886898249224197
000060 00 00 00 00 00 00 42 40 00 00 00 00 00 00 08 40
       36.0 3.0
000070 2b 22 bb 52 32 51 ca 3f c7 c3 37 a8 73 83 2b c0
       0.2056029228172219 -13.756741768653127
000080 00 00 00 00 00 80 48 40 00 00 00 00 00 00 00 00
       49.0 0.0
000090 09 b0 98 02 57 38 d0 3f 94 0a 83 b3 bd b3 30 c0
       0.2534387135845014 -16.702113360874662
0000a0 00 00 00 00 00 80 48 40 00 00 00 00 00 00 f0 3f
       49.0 1.0
0000b0 60 f2 e3 9c a5 21 d2 3f 27 3d 7f 2e af 20 32 c0
       0.28330364533738894 -18.127673059524707
0000c0 00 00 00 00 00 80 48 40 00 00 00 00 00 00 00 40
       49.0 2.0
0000d0 e1 e9 27 94 4b d5 d1 3f 71 40 71 8c fd 55 31 c0
       0.27864350765562845 -17.335900094651553
0000e0 00 00 00 00 00 80 48 40 00 00 00 00 00 00 08 40
       49.0 3.0
0000f0 b3 82 83 0f dc 54 d0 3f ae ea 1e f4 c9 09 31 c0
       0.25517941966067353 -17.038237817333247
000100 00 00 00 00 00 c0 58 40 00 00 00 00 00 00 00 00
       99.0 0.0
000110 0c c5 e6 a9 db 5e dd 3f af 05 db 57 f6 aa 3d c0
       0.4589146765893737 -29.66782139870855
000120 00 00 00 00 00 c0 58 40 00 00 00 00 00 00 f0 3f
       99.0 1.0
000130 ec bd 69 cb d7 28 e1 3f 7d 9c 9a 7f 63 ad 40 c0
       0.5362357113753524 -33.35459895181064
000140 00 00 00 00 00 c0 58 40 00 00 00 00 00 00 00 40
       99.0 2.0
000150 8d 51 00 13 e6 ed e0 3f 88 4e 4f c5 be 1a 40 c0
       0.5290403720014624 -32.20894686100388
000160 00 00 00 00 00 c0 58 40 00 00 00 00 00 00 08 40
       99.0 3.0
000170 7c bd 12 6e b9 1e dd 3f 4b c1 10 1f 5e 26 3d c0
       0.45500026463829335 -29.149873677816952
000180 00 00 00 00 00 c0 62 40 00 00 00 00 00 00 00 00
       150.0 0.0
000190 0b 2c 44 65 da 02 e5 3f 8a a6 5b b9 51 65 44 c0
       0.6565982797486652 -40.7915565202248
0001a0 00 00 00 00 00 c0 62 40 00 00 00 00 00 00 f0 3f
       150.0 1.0
0001b0 6c 8e a1 1c 0e 1c e9 3f 87 12 c7 23 e5 da 47 c0
       0.7846746977997561 -47.71011779041606
0001c0 00 00 00 00 00 c0 62 40 00 00 00 00 00 00 00 40
       150.0 2.0
0001d0 a4 48 35 48 a9 38 e9 3f e3 b1 76 0c 7c dd 47 c0
       0.7881666574778774 -47.73034816547058
0001e0 00 00 00 00 00 c0 62 40 00 00 00 00 00 00 08 40
       150.0 3.0
0001f0 d4 10 32 24 aa 10 e5 3f 9c 8d 2e 6d ae b0 44 c0
       0.6582842547363961 -41.380323074084316
000200 00 00 00 00 00 e0 68 40 00 00 00 00 00 00 00 00
       199.0 0.0
000210 c0 65 85 4b 97 ee eb 3f ac 12 71 23 4e 85 4b c0
       0.8728748774548691 -55.041447096072574
000220 00 00 00 00 00 e0 68 40 00 00 00 00 00 00 f0 3f
       199.0 1.0
000230 27 ef 46 7c 85 d7 f0 3f 7e cd 51 33 5d 38 50 c0
       1.0526175360273073 -64.88068850506349
000240 00 00 00 00 00 e0 68 40 00 00 00 00 00 00 00 40
       199.0 2.0
000250 ee 4b 14 64 15 90 f0 3f 0a 14 60 b2 e4 f4 4e c0
       1.0351766499850288 -61.913229271805974
000260 00 00 00 00 00 e0 68 40 00 00 00 00 00 00 08 40
       199.0 3.0
000270 c4 40 8f b1 4d eb eb 3f 5e 2c 21 3f fa 71 4b c0
       0.8724735706291757 -54.89044942016402
000280 00 00 00 00 00 c0 72 40 00 00 00 00 00 00 00 00
       300.0 0.0
000290 c9 be 73 0d b9 b6 f4 3f 57 e4 a1 7d 5a 44 54 c0
       1.2946100736116242 -81.06802311715852
0002a0 00 00 00 00 00 c0 72 40 00 00 00 00 00 00 f0 3f
       300.0 1.0
0002b0 e1 a0 88 b3 b3 32 f9 3f ea ea 32 b1 e9 02 58 c0
       1.5748784077678055 -96.04551343891549
0002c0 00 00 00 00 00 c0 72 40 00 00 00 00 00 00 00 40
       300.0 2.0
0002d0 6d 30 ca 1e 8c a9 f8 3f f5 5d e9 6f 86 e7 56 c0
       1.5413933947302454 -91.61758039273975
0002e0 00 00 00 00 00 c0 72 40 00 00 00 00 00 00 08 40
       300.0 3.0
0002f0 47 7d b8 eb 14 65 f4 3f 58 06 2d bf c5 4c 53 c0
       1.2746781547392219 -77.19956950566245
000300 00 00 00 00 00 f0 78 40 00 00 00 00 00 00 00 00
       399.0 0.0
000310 e5 28 1e 64 98 ef fa 3f 7c 7e 85 f7 2b 95 58 c0
       1.6834949408390056 -98.33080852543384
000320 00 00 00 00 00 f0 78 40 00 00 00 00 00 00 f0 3f
       399.0 1.0
000330 75 5a fc 92 c8 5b 00 40 c3 e5 b2 28 6e 24 5e c0
       2.0448161586057787 -120.56922357054195
000340 00 00 00 00 00 f0 78 40 00 00 00 00 00 00 00 40
       399.0 2.0
000350 53 21 a1 5c e9 36 00 40 51 0e ab 0a 5e 64 5d c0
       2.0268122898743655 -117.56823984818153
000360 00 00 00 00 00 f0 78 40 00 00 00 00 00 00 08 40
       399.0 3.0
000370 ef da dc f7 ff 30 fb 3f 8d de 3c 46 f9 9a 59 c0
       1.6994628603112536 -102.42146449989578
000380 00 00 00 00 00 c0 82 40 00 00 00 00 00 00 00 00
       600.0 0.0
000390 47 f1 ca ca 8e eb 03 40 02 10 8f 50 d5 2c 62 c0
       2.4900184481795438 -145.40103939000988
0003a0 00 00 00 00 00 c0 82 40 00 00 00 00 00 00 f0 3f
       600.0 1.0
0003b0 31 e8 d6 81 31 0f 07 40 30 4f b4 36 85 af 63 c0
       2.8824186462125216 -157.48501143662133
0003c0 00 00 00 00 00 c0 82 40 00 00 00 00 00 00 00 40
       600.0 2.0
0003d0 ee 9d 77 90 79 54 07 40 37 fc fc a7 b0 47 64 c0
       2.9162474905494866 -162.2403144780271
0003e0 00 00 00 00 00 c0 82 40 00 00 00 00 00 00 08 40
       600.0 3.0
0003f0 13 f0 8a 34 ef dd 03 40 cf 2d 93 82 b9 ee 61 c0
       2.483366404047055 -143.4601452707852
000400 00 00 00 00 00 f8 88 40 00 00 00 00 00 00 00 00
       799.0 0.0
000410 89 b7 69 d1 e9 fb 08 40 4f 7d 27 bb 76 af 65 c0
       3.123004566229558 -173.48324353897848
000420 00 00 00 00 00 f8 88 40 00 00 00 00 00 00 f0 3f
       799.0 1.0
000430 f4 ac d1 69 67 4c 0d 40 37 1f ad d6 79 19 68 c0
       3.6623066203225054 -192.79612287342908
000440 00 00 00 00 00 f8 88 40 00 00 00 00 00 00 00 40
       799.0 2.0
000450 db 37 1a 36 8f 68 0d 40 13 51 18 5e 84 c3 68 c0
       3.676054403948894 -198.10990814923625
000460 00 00 00 00 00 f8 88 40 00 00 00 00 00 00 08 40
       799.0 3.0
000470 5d cc 2a 06 93 42 09 40 55 95 f3 97 10 26 66 c0
       3.1575069886981013 -177.1895255811202
000480 00 00 00 00 00 c0 92 40 00 00 00 00 00 00 00 00
       1200.0 0.0
000490 df 50 38 65 eb 42 11 40 52 49 bc 0e 3d f7 6a c0
       4.315351087152719 -215.72620331549348
0004a0 00 00 00 00 00 c0 92 40 00 00 00 00 00 00 f0 3f
       1200.0 1.0
0004b0 23 f6 e4 00 b5 41 14 40 8f ac b2 9a c9 66 6d c0
       5.06416703603239 -235.21210989854123
0004c0 00 00 00 00 00 c0 92 40 00 00 00 00 00 00 00 40
       1200.0 2.0
0004d0 e1 f3 13 c2 e6 3e 14 40 12 f4 23 ca a8 3b 6e c0
       5.061427147357763 -241.86435420057438
0004e0 00 00 00 00 00 c0 92 40 00 00 00 00 00 00 08 40
       1200.0 3.0
0004f0 06 54 8d 54 a5 3b 11 40 7c 95 de bc 53 3f 6b c0
       4.308247872472753 -217.9789718959181
000500 00 00 00 00 00 fc 98 40 00 00 00 00 00 00 00 00
       1599.0 0.0
000510 7f 91 57 de fb b2 16 40 07 93 08 dc 2f 29 70 c0
       5.674788927168605 -258.57418444966646
000520 00 00 00 00 00 fc 98 40 00 00 00 00 00 00 f0 3f
       1599.0 1.0
000530 88 a8 31 51 07 0d 1b 40 6a 66 e0 76 94 de 71 c0
       6.762723225265411 -285.9112461820247
000540 00 00 00 00 00 fc 98 40 00 00 00 00 00 00 00 40
       1599.0 2.0
000550 de 78 ca 3c a8 3d 1b 40 3f fb 9b 62 86 05 73 c0
       6.810212087495726 -304.3453088849091
000560 00 00 00 00 00 fc 98 40 00 00 00 00 00 00 08 40
       1599.0 3.0
000570 c2 de de f6 bb e6 16 40 e4 80 6f be b2 ef 6f c0
       5.7253264020470755 -255.49056932237647
000580 00 00 00 00 00 34 9f 40 00 00 00 00 00 00 00 00
       1997.0 0.0
000590 c1 53 a6 40 73 7d 1d 40 02 13 85 4e a4 37 73 c0
       7.372509966041378 -307.4776139448369
0005a0 00 00 00 00 00 34 9f 40 00 00 00 00 00 00 f0 3f
       1997.0 1.0
0005b0 52 7a 01 6c 50 7f 21 40 ef 19 ff f5 08 ea 75 c0
       8.748660445385358 -350.62718772553393
0005c0 00 00 00 00 00 34 9f 40 00 00 00 00 00 00 00 40
       1997.0 2.0
0005d0 30 0b 32 92 42 b6 21 40 8f 4b ac ee a7 0f 78 c0
       8.855976647003985 -384.97849910071176
0005e0 00 00 00 00 00 34 9f 40 00 00 00 00 00 00 08 40
       1997.0 3.0
0005f0 de 24 3d ee 61 1e 1d 40 91 80 e0 e8 42 12 72 c0
       7.27967045067018 -289.1413353700273
000600 00 00 00 00 00 c2 a2 40 00 00 00 00 00 00 00 00
       2401.0 0.0
000610 09 02 b4 90 79 59 21 40 7c a0 13 95 d8 6a 73 c0
       8.674755594228388 -310.677876545589
000620 00 00 00 00 00 c2 a2 40 00 00 00 00 00 00 f0 3f
       2401.0 1.0
000630 52 eb 5a 5f 32 b6 24 40 b5 39 37 05 d1 9b 77 c0
       10.35585306153158 -377.7385303647273
000640 00 00 00 00 00 c2 a2 40 00 00 00 00 00 00 00 40
       2401.0 2.0
000650 d9 8d bd 88 bd 84 24 40 43 1f 78 63 f3 ec 78 c0
       10.259258530749252 -398.8094210331221
000660 00 00 00 00 00 c2 a2 40 00 00 00 00 00 00 08 40
       2401.0 3.0
000670 97 c4 8e 4d 56 46 21 40 d2 78 cd 0e 7f f7 71 c0
       8.637377189328886 -287.4685199762581
000680 00 00 00 00 00 fe a8 40 00 00 00 00 00 00 00 00
       3199.0 0.0
000690 eb 98 b3 c8 16 b8 27 40 62 27 03 dd ee f8 74 c0
       11.859548828052047 -335.5583162425229
0006a0 00 00 00 00 00 fe a8 40 00 00 00 00 00 00 f0 3f
       3199.0 1.0
0006b0 a5 23 96 9c c5 e2 2b 40 94 1b 21 01 18 cf 7b c0
       13.942913907363456 -444.9433604520102
0006c0 00 00 00 00 00 fe a8 40 00 00 00 00 00 00 00 40
       3199.0 2.0
0006d0 85 33 a5 ad 6d 41 2b 40 94 69 8b b9 26 41 7a c0
       13.627789904037636 -420.07195429285025
0006e0 00 00 00 00 00 fe a8 40 00 00 00 00 00 00 08 40
       3199.0 3.0
0006f0 9d d0 01 a1 c8 b3 27 40 8b 37 68 57 b6 be 73 c0
       11.851140052291436 -315.919516951654
000700 00 00 00 00 00 36 af 40 00 00 00 00 00 00 00 00
       3995.0 0.0
000710 06 2b fb 61 4d b3 2d 40 4f 44 6e 18 73 29 74 c0
       14.850199758443988 -322.59059947083455
000720 00 00 00 00 00 36 af 40 00 00 00 00 00 00 f0 3f
       3995.0 1.0
000730 d8 1e 7c 90 2a 22 31 40 b5 04 b0 4a b6 ac 7b c0
       17.133461981108525 -442.794504821369
000740 00 00 00 00 00 36 af 40 00 00 00 00 00 00 00 40
       3995.0 2.0
000750 1c c3 7f e1 59 85 30 40 c3 26 ec b6 5f 6a 78 c0
       16.52090272301858 -390.64836780783315
000760 00 00 00 00 00 36 af 40 00 00 00 00 00 00 08 40
       3995.0 3.0
000770 01 9a fb 80 db f3 2c 40 37 73 24 ea 6a 02 71 c0
       14.476284056389888 -272.1511022018271
000780 00 00 00 00 00 c3 b2 40 00 00 00 00 00 00 00 00
       4803.0 0.0
000790 a6 84 9d b2 83 54 30 40 29 6a 0b b8 ae c4 6e c0
       16.33013454766901 -246.14632799367362
0007a0 00 00 00 00 00 c3 b2 40 00 00 00 00 00 00 f0 3f
       4803.0 1.0
0007b0 8b 8c c6 25 14 95 32 40 e4 69 78 72 39 84 73 c0
       18.582338677381397 -312.2640251830728
0007c0 00 00 00 00 00 c3 b2 40 00 00 00 00 00 00 00 40
       4803.0 2.0
0007d0 73 ed 23 c5 ff 42 32 40 dc cd 60 73 ea 25 73 c0
       18.26171524169099 -306.3697389394199
0007e0 00 00 00 00 00 c3 b2 40 00 00 00 00 00 00 08 40
       4803.0 3.0
0007f0 10 1b 49 cc 62 a7 30 40 f1 76 03 15 6b 11 73 c0
       16.65385128769691 -305.08864308694234
